Fitting layer_cann for settlement...
Model: "CANN"
_______________________________________________________________________________________________________________________________
 Layer (type)                            Output Shape                Param #         Connected to
===============================================================================================================================
 input_layer_nn (InputLayer)             [(None, 35)]                0               []

 hidden_layer_1 (Dense)                  (None, 30)                  1080            ['input_layer_nn[0][0]']

 hidden_layer_activation_1 (Activation)  (None, 30)                  0               ['hidden_layer_1[0][0]']

 hidden_layer_2 (Dense)                  (None, 10)                  310             ['hidden_layer_activation_1[0][0]']

 hidden_layer_activation_2 (Activation)  (None, 10)                  0               ['hidden_layer_2[0][0]']

 last_hidden_layer (Dense)               (None, 30)                  330             ['hidden_layer_activation_2[0][0]']

 input_layer_glm (InputLayer)            [(None, 54)]                0               []

 last_hidden_layer_activation (Activatio  (None, 30)                 0               ['last_hidden_layer[0][0]']
 n)

 output_layer_glm (Dense)                (None, 1)                   55              ['input_layer_glm[0][0]']

 output_layer_NN (Dense)                 (None, 1)                   31              ['last_hidden_layer_activation[0][0]']

 add_1026 (Add)                          (None, 1)                   0               ['output_layer_glm[0][0]',
                                                                                      'output_layer_NN[0][0]']

 output_layer_CANN (Dense)               (None, 1)                   2               ['add_1026[0][0]']

===============================================================================================================================
Total params: 1,808
Trainable params: 1,751
Non-trainable params: 57
_______________________________________________________________________________________________________________________________
[1] "Model: \"CANN\"\n__________________
…
__________________________________________________________________"
Fitting layer_cann for payment...
Model: "CANN"
_______________________________________________________________________________________________________________________________
 Layer (type)                            Output Shape                Param #         Connected to
===============================================================================================================================
 input_layer_nn (InputLayer)             [(None, 36)]                0               []

 hidden_layer_1 (Dense)                  (None, 20)                  740             ['input_layer_nn[0][0]']

 hidden_layer_activation_1 (Activation)  (None, 20)                  0               ['hidden_layer_1[0][0]']

 hidden_layer_2 (Dense)                  (None, 40)                  840             ['hidden_layer_activation_1[0][0]']

 hidden_layer_activation_2 (Activation)  (None, 40)                  0               ['hidden_layer_2[0][0]']

 last_hidden_layer (Dense)               (None, 10)                  410             ['hidden_layer_activation_2[0][0]']

 input_layer_glm (InputLayer)            [(None, 55)]                0               []

 last_hidden_layer_activation (Activatio  (None, 10)                 0               ['last_hidden_layer[0][0]']
 n)

 output_layer_glm (Dense)                (None, 1)                   56              ['input_layer_glm[0][0]']

 output_layer_NN (Dense)                 (None, 1)                   11              ['last_hidden_layer_activation[0][0]']

 add_1027 (Add)                          (None, 1)                   0               ['output_layer_glm[0][0]',
                                                                                      'output_layer_NN[0][0]']

 output_layer_CANN (Dense)               (None, 1)                   2               ['add_1027[0][0]']

===============================================================================================================================
Total params: 2,059
Trainable params: 2,001
Non-trainable params: 58
_______________________________________________________________________________________________________________________________
[1] "Model: \"CANN\"\n__________________
…
_ Overall best score is 1.22053174972534 for hyper_grid row with dnn_hidden_1=20 dnn_hidden_2=10 dnn_hidden_3=10
Model: "CANN"
________________________________________________________________________________________________________________________________________
 Layer (type)                               Output Shape                  Param #          Connected to
========================================================================================================================================
 input_layer_nn (InputLayer)                [(None, 36)]                  0                []

 hidden_layer_1 (Dense)                     (None, 20)                    740              ['input_layer_nn[0][0]']

 hidden_layer_activation_1 (Activation)     (None, 20)                    0                ['hidden_layer_1[0][0]']

 hidden_layer_2 (Dense)                     (None, 10)                    210              ['hidden_layer_activation_1[0][0]']

 hidden_layer_activation_2 (Activation)     (None, 10)                    0                ['hidden_layer_2[0][0]']

 last_hidden_layer (Dense)                  (None, 10)                    110              ['hidden_layer_activation_2[0][0]']

 input_layer_glm (InputLayer)               [(None, 55)]                  0                []

 last_hidden_layer_activation (Activation)  (None, 10)                    0                ['last_hidden_layer[0][0]']

 output_layer_glm (Dense)                   (None, 1)                     56               ['input_layer_glm[0][0]']

 output_layer_NN (Dense)                    (None, 1)                     11               ['last_hidden_layer_activation[0][0]']

 add_1538 (Add)                             (None, 1)                     0                ['output_layer_glm[0][0]',
                                                                                            'output_layer_NN[0][0]']

 output_layer_CANN (Dense)                  (None, 1)                     2                ['add_1538[0][0]']

========================================================================================================================================
Total params: 1,129
Trainable params: 1,071
Non-trainable params: 58
________________________________________________________________________________________________________________________________________
[1] "Model: \"CANN\"\
…
