…
_ Overall best score is 0.551398468017578 for hyper_grid row with dnn_hidden_1=30 dnn_hidden_2=20 dnn_hidden_3=40
Model: "model_510"
________________________________________________________________________________________________________________
 Layer (type)                                     Output Shape                                 Param #          
================================================================================================================
 input_layer_nn (InputLayer)                      [(None, 35)]                                 0                
 hidden_layer_1 (Dense)                           (None, 30)                                   1080             
 hidden_layer_activation_1 (Activation)           (None, 30)                                   0                
 hidden_layer_2 (Dense)                           (None, 20)                                   620              
 hidden_layer_activation_2 (Activation)           (None, 20)                                   0                
 last_hidden_layer (Dense)                        (None, 40)                                   840              
 last_hidden_layer_activation (Activation)        (None, 40)                                   0                
 output_layer (Dense)                             (None, 1)                                    41               
================================================================================================================
Total params: 2,581
Trainable params: 2,581
Non-trainable params: 0
________________________________________________________________________________________________________________
[1] "Model: \"model_510\"\n________________________________________________________________________________________________________________\n Layer (type)                                     Output Shape                                 Param #          \n================================================================================================================\n input_layer_nn (InputLayer)                      [(None, 35)]                                 0                \n hidden_layer_1 (Dense)                           (None, 30)                                   1080             \n hidden_layer_activation_1 (Activation)           (None, 30)                                   0                \n hidden_layer_2 (Dense)                           (None, 20)                                   620              \n hidden_layer_activation_2 (Activation)           (None, 20)                                   0                \n last_hidden_layer (Dense)                        (None, 40)                                   840              \n last_hidden_layer_activation (Activation)        (None, 40)                                   0                \n output_layer (Dense)                             (None, 1)                                    41               \n================================================================================================================\nTotal params: 2,581\nTrainable params: 2,581\nNon-trainable params: 0\n________________________________________________________________________________________________________________"
Fitting layer_dnn for payment...
Model: "model_512"
________________________________________________________________________________________________________________
 Layer (type)                                     Output Shape                                 Param #          
================================================================================================================
 input_layer_nn (InputLayer)                      [(None, 36)]                                 0                
 hidden_layer_1 (Dense)                           (None, 40)                                   1480             
 hidden_layer_activation_1 (Activation)           (None, 40)                                   0                
 hidden_layer_2 (Dense)                           (None, 30)                                   1230             
 hidden_layer_activation_2 (Activation)           (None, 30)                                   0                
 last_hidden_layer (Dense)                        (None, 20)                                   620              
 last_hidden_layer_activation (Activation)        (None, 20)                                   0                
 output_layer (Dense)                             (None, 1)                                    21               
================================================================================================================
Total params: 3,351
Trainable params: 3,351
Non-trainable params: 0
________________________________________________________________________________________________________________
[1] "Model: \"model_512\"\n________________________________________________________________________________________________________________\n Layer (type)                                     Output Shape                                 Param #          \n================================================================================================================\n input_layer_nn (InputLayer)                      [(None, 36)]                                 0                \n hidden_layer_1 (Dense)                           (None, 40)                                   1480             \n hidden_layer_activation_1 (Activation)           (None, 40)                                   0                \n hidden_layer_2 (Dense)                           (None, 30)                                   1230             \n hidden_layer_activation_2 (Activation)           (None, 30)                                   0                \n last_hidden_layer (Dense)                        (None, 20)                                   620              \n last_hidden_layer_activation (Activation)        (None, 20)                                   0                \n output_layer (Dense)                             (None, 1)                                    21               \n================================================================================================================\nTotal params: 3,351\nTrainable params: 3,351\nNon-trainable params: 0\n________________________________________________________________________________________________________________"
Fitting layer_dnn for size...
Model: "model_514"
________________________________________________________________________________________________________________
 Layer (type)                                     Output Shape                                 Param #          
================================================================================================================
 input_layer_nn (InputLayer)                      [(None, 36)]                                 0                
 hidden_layer_1 (Dense)                           (None, 20)                                   740              
 hidden_layer_activation_1 (Activation)           (None, 20)                                   0                
 hidden_layer_2 (Dense)                           (None, 20)                                   420              
 hidden_layer_activation_2 (Activation)           (None, 20)                                   0                
 last_hidden_layer (Dense)                        (None, 30)                                   630              
 last_hidden_layer_activation (Activation)        (None, 30)                                   0                
 output_layer (Dense)                             (None, 1)                                    31               
================================================================================================================
Total params: 1,821
Trainable params: 1,821
Non-trainable params: 0
________________________________________________________________________________________________________________
[1] "Model: \"model_514\"\n________________________________________________________________________________________________________________\n Layer (type)                                     Output Shape                                 Param #          \n================================================================================================================\n input_layer_nn (InputLayer)                      [(None, 36)]                                 0                \n hidden_layer_1 (Dense)                           (None, 20)                                   740              \n hidden_layer_activation_1 (Activation)           (None, 20)                                   0                \n hidden_layer_2 (Dense)                           (None, 20)                                   420              \n hidden_layer_activation_2 (Activation)           (None, 20)                                   0                \n last_hidden_layer (Dense)                        (None, 30)                                   630              \n last_hidden_layer_activation (Activation)        (None, 30)                                   0                \n output_layer (Dense)                             (None, 1)                                    31               \n================================================================================================================\nTotal params: 1,821\nTrainable params: 1,821\nNon-trainable params: 0\n________________________________________________________________________________________________________________"
