Fitting layer_dnn for settlement...
Model: "model"
________________________________________________________________________________________________________________
 Layer (type)                                     Output Shape                                 Param #          
================================================================================================================
 input_layer_nn (InputLayer)                      [(None, 35)]                                 0                
 hidden_layer_1 (Dense)                           (None, 30)                                   1080             
 hidden_layer_activation_1 (Activation)           (None, 30)                                   0                
 hidden_layer_2 (Dense)                           (None, 20)                                   620              
 hidden_layer_activation_2 (Activation)           (None, 20)                                   0                
 last_hidden_layer (Dense)                        (None, 40)                                   840              
 last_hidden_layer_activation (Activation)        (None, 40)                                   0                
 output_layer (Dense)                             (None, 1)                                    41               
================================================================================================================
Total params: 2,581
Trainable params: 2,581
Non-trainable params: 0
________________________________________________________________________________________________________________
[1] "Model: \"model\"\n________________________________________________________________________________________________________________\n Layer (type)                                     Output Shape                                 Param #          \n================================================================================================================\n input_layer_nn (InputLayer)                      [(None, 35)]                                 0                \n hidden_layer_1 (Dense)                           (None, 30)                                   1080             \n hidden_layer_activation_1 (Activation)           (None, 30)                                   0                \n hidden_layer_2 (Dense)                           (None, 20)                                   620              \n hidden_layer_activation_2 (Activation)           (None, 20)                                   0                \n last_hidden_layer (Dense)                        (None, 40)                                   840              \n last_hidden_layer_activation (Activation)        (None, 40)                                   0                \n output_layer (Dense)                             (None, 1)                                    41               \n================================================================================================================\nTotal params: 2,581\nTrainable params: 2,581\nNon-trainable params: 0\n________________________________________________________________________________________________________________"
Fitting layer_dnn for payment...
Model: "model_2"
________________________________________________________________________________________________________________
 Layer (type)                                     Output Shape                                 Param #          
================================================================================================================
 input_layer_nn (InputLayer)                      [(None, 36)]                                 0                
 hidden_layer_1 (Dense)                           (None, 30)                                   1110             
 hidden_layer_activation_1 (Activation)           (None, 30)                                   0                
 hidden_layer_2 (Dense)                           (None, 30)                                   930              
 hidden_layer_activation_2 (Activation)           (None, 30)                                   0                
 last_hidden_layer (Dense)                        (None, 40)                                   1240             
 last_hidden_layer_activation (Activation)        (None, 40)                                   0                
 output_layer (Dense)                             (None, 1)                                    41               
================================================================================================================
Total params: 3,321
Trainable params: 3,321
Non-trainable params: 0
________________________________________________________________________________________________________________
[1] "Model: \"model_2\"\n________________________________________________________________________________________________________________\n Layer (type)                                     Output Shape                                 Param #          \n================================================================================================================\n input_layer_nn (InputLayer)                      [(None, 36)]                                 0                \n hidden_layer_1 (Dense)                           (None, 30)                                   1110             \n hidden_layer_activation_1 (Activation)           (None, 30)                                   0                \n hidden_layer_2 (Dense)                           (None, 30)                                   930              \n hidden_layer_activation_2 (Activation)           (None, 30)                                   0                \n last_hidden_layer (Dense)                        (None, 40)                                   1240             \n last_hidden_layer_activation (Activation)        (None, 40)                                   0                \n output_layer (Dense)                             (None, 1)                                    41               \n================================================================================================================\nTotal params: 3,321\nTrainable params: 3,321\nNon-trainable params: 0\n________________________________________________________________________________________________________________"
Fitting layer_dnn for size...
_ Initializing the weights...
_ Starting hypergrid search...
…
_ Overall best score is 1.22361879348755 for hyper_grid row with dnn_hidden_1=30 dnn_hidden_2=10 dnn_hidden_3=30
Model: "model_514"
________________________________________________________________________________________________________________
 Layer (type)                                     Output Shape                                 Param #          
================================================================================================================
 input_layer_nn (InputLayer)                      [(None, 36)]                                 0                
 hidden_layer_1 (Dense)                           (None, 30)                                   1110             
 hidden_layer_activation_1 (Activation)           (None, 30)                                   0                
 hidden_layer_2 (Dense)                           (None, 10)                                   310              
 hidden_layer_activation_2 (Activation)           (None, 10)                                   0                
 last_hidden_layer (Dense)                        (None, 30)                                   330              
 last_hidden_layer_activation (Activation)        (None, 30)                                   0                
 output_layer (Dense)                             (None, 1)                                    31               
================================================================================================================
Total params: 1,781
Trainable params: 1,781
Non-trainable params: 0
________________________________________________________________________________________________________________
[1] "Model: \"model_514\"\n________________________________________________________________________________________________________________\n Layer (type)                                     Output Shape                                 Param #          \n================================================================================================================\n input_layer_nn (InputLayer)                      [(None, 36)]                                 0                \n hidden_layer_1 (Dense)                           (None, 30)                                   1110             \n hidden_layer_activation_1 (Activation)           (None, 30)                                   0                \n hidden_layer_2 (Dense)                           (None, 10)                                   310              \n hidden_layer_activation_2 (Activation)           (None, 10)                                   0                \n last_hidden_layer (Dense)                        (None, 30)                                   330              \n last_hidden_layer_activation (Activation)        (None, 30)                                   0                \n output_layer (Dense)                             (None, 1)                                    31               \n================================================================================================================\nTotal params: 1,781\nTrainable params: 1,781\nNon-trainable params: 0\n________________________________________________________________________________________________________________"
NULL
   dnn_hidden_1 dnn_hidden_2 dnn_hidden_3 mean_scores
1            30           10           30    1.223619
…
