…
_ Bias regularization was activated but since there is no hidden layer, it will be deactivated for you.
Fitting layer_dnn for payment...
Model: "model_49"
________________________________________________________________________________________________________________
 Layer (type)                                     Output Shape                                 Param #          
================================================================================================================
 input_layer_nn (InputLayer)                      [(None, 36)]                                 0                
 hidden_layer_1 (Dense)                           (None, 40)                                   1480             
 hidden_layer_activation_1 (Activation)           (None, 40)                                   0                
 hidden_layer_2 (Dense)                           (None, 30)                                   1230             
 hidden_layer_activation_2 (Activation)           (None, 30)                                   0                
 last_hidden_layer (Dense)                        (None, 20)                                   620              
 last_hidden_layer_activation (Activation)        (None, 20)                                   0                
 output_layer (Dense)                             (None, 1)                                    21               
================================================================================================================
Total params: 3,351
Trainable params: 3,351
Non-trainable params: 0
________________________________________________________________________________________________________________
[1] "Model: \"model_49\"\n________________________________________________________________________________________________________________\n Layer (type)                                     Output Shape                                 Param #          \n================================================================================================================\n input_layer_nn (InputLayer)                      [(None, 36)]                                 0                \n hidden_layer_1 (Dense)                           (None, 40)                                   1480             \n hidden_layer_activation_1 (Activation)           (None, 40)                                   0                \n hidden_layer_2 (Dense)                           (None, 30)                                   1230             \n hidden_layer_activation_2 (Activation)           (None, 30)                                   0                \n last_hidden_layer (Dense)                        (None, 20)                                   620              \n last_hidden_layer_activation (Activation)        (None, 20)                                   0                \n output_layer (Dense)                             (None, 1)                                    21               \n================================================================================================================\nTotal params: 3,351\nTrainable params: 3,351\nNon-trainable params: 0\n________________________________________________________________________________________________________________"
Fitting layer_dnn for size...
Model: "model_51"
________________________________________________________________________________________________________________
 Layer (type)                                     Output Shape                                 Param #          
================================================================================================================
 input_layer_nn (InputLayer)                      [(None, 36)]                                 0                
 hidden_layer_1 (Dense)                           (None, 20)                                   740              
 hidden_layer_activation_1 (Activation)           (None, 20)                                   0                
 hidden_layer_2 (Dense)                           (None, 20)                                   420              
 hidden_layer_activation_2 (Activation)           (None, 20)                                   0                
 last_hidden_layer (Dense)                        (None, 30)                                   630              
 last_hidden_layer_activation (Activation)        (None, 30)                                   0                
 output_layer (Dense)                             (None, 1)                                    31               
================================================================================================================
Total params: 1,821
Trainable params: 1,821
Non-trainable params: 0
________________________________________________________________________________________________________________
[1] "Model: \"model_51\"\n________________________________________________________________________________________________________________\n Layer (type)                                     Output Shape                                 Param #          \n================================================================================================================\n input_layer_nn (InputLayer)                      [(None, 36)]                                 0                \n hidden_layer_1 (Dense)                           (None, 20)                                   740              \n hidden_layer_activation_1 (Activation)           (None, 20)                                   0                \n hidden_layer_2 (Dense)                           (None, 20)                                   420              \n hidden_layer_activation_2 (Activation)           (None, 20)                                   0                \n last_hidden_layer (Dense)                        (None, 30)                                   630              \n last_hidden_layer_activation (Activation)        (None, 30)                                   0                \n output_layer (Dense)                             (None, 1)                                    31               \n================================================================================================================\nTotal params: 1,821\nTrainable params: 1,821\nNon-trainable params: 0\n________________________________________________________________________________________________________________"
# A tibble: 8 x 4
  dnn_hidden_1 dnn_hidden_2 dnn_hidden_3 mean_scores
         <dbl>        <dbl>        <dbl>       <dbl>
…
